6.86x_Machine_Learning/Digit_Recognition/Part2/mnist/mnist_model_fully_connected.pt (torch_old, 918878 bytes, 8 tensors)

weight f4 [32, 1, 3, 3]
0	0x3e8d2c81	0.27573016
1	0xbc3bbbc9	-0.011458346
2	0xbf54bf30	-0.8310423
3	0x3e4684f6	0.19386658
4	0x3f75613b	0.95851487
5	0x3e54f9fe	0.2079849
6	0xbf2f6527	-0.6851372
7	0x3e8b017a	0.27149564
8	0x3cf63c0c	0.03005793
9	0xbf027755	-0.50963336
10	0x3e99debf	0.30052754
11	0x3e47acbf	0.19499491
12	0xbe9bcc3c	-0.30429256
13	0x3e09ff01	0.13476183
14	0x3ea6f5a9	0.326093
15	0xbebc74bc	-0.3680781
16	0x3e77f9f2	0.2421644
17	0x3ee9b405	0.45645157
18	0xbe6a2648	-0.22866166
19	0xbe1666e3	-0.14687686
20	0xbe8f77b6	-0.2802102
21	0xbec5df7f	-0.38647076
22	0xbeb87c8a	-0.36032516
23	0xbd0a85ff	-0.033819195
24	0xbea6b940	-0.3256321
25	0x3e662311	0.22474314
26	0x3ebaab46	0.36458796
27	0xbe423a03	-0.18967442
28	0xbeb1d8ac	-0.3473562
29	0x3d10159f	0.03517687
30	0x3c8ade7b	0.01695179
31	0x3e187c21	0.14891101
32	0x3e03ecbd	0.12883277
33	0xbe984a56	-0.29744214
34	0x3cd46258	0.0259258
35	0x3ec08676	0.37602586
36	0x3e61516c	0.22003716
37	0x3ee8d639	0.4547594
38	0xbda19380	-0.078894615
39	0x3c9529c9	0.018208401
40	0xbdd41ef9	-0.1035747
41	0xbf198ef1	-0.59983736
42	0x3ed09188	0.40736032
43	0xbd8ec14a	-0.06970461
44	0x3ce980ee	0.028503861
45	0x3d156b97	0.03647956
46	0xbef5c6bc	-0.48003185
47	0xbe7a6c02	-0.24455264
48	0x3e9013da	0.28140146
49	0xbf17d9c0	-0.59316635
50	0xbf04d294	-0.51883817
51	0x3f3c81c5	0.7363551
52	0x3f177dcf	0.59176344
53	0x3e978d3a	0.29599935
54	0xbe62255a	-0.22084561
55	0xbf2daf58	-0.6784568
56	0xbee14f23	-0.4400569
57	0xbed7d3c4	-0.42153752
58	0x3ce95306	0.028481971
59	0x3f1e8fa3	0.6193792
60	0x3f1a79d8	0.6034217
61	0x3f07cf90	0.5305109
62	0xbe773db0	-0.24144626
63	0x3e0c1229	0.13678803
64	0xbec7c9db	-0.3902119
65	0xbe40745f	-0.18794392
66	0x3eb6a613	0.3567358
67	0xbe3100a3	-0.17285399
68	0x3dadf718	0.08494395
69	0x3e9a3457	0.30118057
70	0xbd6233f5	-0.05522533
71	0x3dd43555	0.10361735
72	0x3ed3cf31	0.41369012
73	0xbeba95f0	-0.36442518
74	0xbf3ed765	-0.74547416
75	0x3e8f60bc	0.2800349
76	0x3ea268a7	0.31720468
77	0xbd04a205	-0.032381076
78	0xbd67bc4c	-0.05657606
79	0x3eada22c	0.3391279
80	0x3e6f8c79	0.2339343
81	0xbe6cf8a0	-0.23141718
82	0x3e155259	0.14582194
83	0xbea050b1	-0.31311563
84	0x3e3eb6e8	0.1862446
85	0x3d79461d	0.06085788
86	0xbf279939	-0.65468174
87	0x3ef12123	0.47095594
88	0x3f005806	0.50134313
89	0xbef4d8ae	-0.47821563
90	0xbd6f36f1	-0.058402006
91	0x3e16d72d	0.1473052
92	0xbd17f31e	-0.03709709
93	0xbd5d5d2e	-0.05404394
94	0xbe58c24f	-0.21167873
95	0x3e75c2b1	0.2400005
96	0xbea0f22b	-0.3143476
97	0x3e8c0e3c	0.2735461
98	0xbd341cbc	-0.043972716
99	0xbbf9cc14	-0.007623205
100	0xbed46d21	-0.4148951
101	0xbe85a762	-0.26104265
102	0xbf04263d	-0.51620847
103	0xbddc270a	-0.107496336
104	0xbec46648	-0.38359284
105	0xbec2fdad	-0.38084164
106	0xbe12e8b6	-0.14346585
107	0xbd8a7fe3	-0.06762674
108	0xbdd9c1aa	-0.106326416
109	0xbe496e6f	-0.19671033
110	0xbdb594f6	-0.08866303
111	0xbe5f8a96	-0.2183021
112	0xbeb59b9b	-0.3547028
113	0xbe943295	-0.2894484
114	0x3e9d87f2	0.3076778
115	0x3dcb6814	0.09931961
116	0xbe9d4fa5	-0.30724826
117	0x3e7ceb1d	0.24699064
118	0xbd8d27ea	-0.06892379
119	0xbf03135b	-0.5120141
120	0xbe3c135d	-0.18366762
121	0xbe121eb9	-0.14269532
122	0xbe976085	-0.29565826
123	0x3ee059b2	0.43818432
124	0x3e1e15d6	0.15438017
125	0x3f019e19	0.5063186
126	0xbe98b60f	-0.298264
127	0xbe7529b5	-0.23941691
128	0x3dea795e	0.1144893
129	0x3f083a42	0.53213894
130	0x3f0e1204	0.5549624
131	0x3ee3ffbc	0.44531047
132	0xbe8027ea	-0.25030452
133	0xbe9c19a8	-0.30488324
134	0xbf079fd7	-0.5297827
135	0xbee0bb83	-0.4389306
136	0xbf16ba98	-0.5887847
137	0xbee0604b	-0.43823466
138	0xbe0d18ac	-0.13778943
139	0x3e22a41e	0.15882918
140	0x3e735a84	0.23764998
141	0xbd492f06	-0.04911711
142	0x3ecd89c2	0.40144163
143	0x3e72afcb	0.23699872
144	0xbf18bf37	-0.5966677
145	0x3e4cbb27	0.19993268
146	0x3f019eae	0.5063275
147	0xbf403955	-0.7508748
148	0x3e8d2f6b	0.2757524
149	0x3ee2d266	0.44301146
150	0xbef88f53	-0.48546848
151	0x3e368bfd	0.17826839
152	0x3d64b96c	0.055840895
153	0xbf45029d	-0.7695711
154	0x3eeeecef	0.4666514
155	0x3f0c5737	0.5482058
156	0xbd85c670	-0.065319896
157	0x3f8219d7	1.0164136
158	0xbeb904b6	-0.36136407
159	0x3f0f9b83	0.5609667
160	0x3ebf9e31	0.37425378
161	0xbf54e553	-0.8316242
162	0x3f5cc8f8	0.86244154
163	0x3edf0e12	0.43565422
164	0x3f0ecd36	0.5578188
165	0xbe5b42ab	-0.2141215
166	0x3ec442cf	0.3833222
167	0xbdabc34e	-0.08386861
168	0xbf539d24	-0.8266165
169	0xbf855216	-1.0415676
170	0xbe5cf3f1	-0.21577431
171	0x3df89bf0	0.12139118
172	0x3ca04d9d	0.019568259
173	0xbc0eed40	-0.008723557
174	0xbe5e9fc1	-0.21740629
175	0xbe1cbf9a	-0.15307465
176	0xbea3454b	-0.31888804
177	0xbe89ae8e	-0.26890987
178	0xbe85df1b	-0.26146778
179	0x3e1f81c2	0.15576842
180	0x3f24def9	0.6440273
181	0x3f25577d	0.6458662
182	0xbeaac748	-0.33355165
183	0x3ed23777	0.4105794
184	0xbf0c19d1	-0.5472689
185	0xbf2ad8b5	-0.6673692
186	0xbe23c3d8	-0.15992677
187	0xbecdda7a	-0.40205747
188	0xbc83499a	-0.016026307
189	0x3e8dc7b7	0.27691433
190	0x3d0fe5a1	0.0351311
191	0xbed566dc	-0.41680038
192	0x3edf6e43	0.4363881
193	0xbe8412c5	-0.2579557
194	0xbe7f974e	-0.24960062
195	0x3e168db4	0.14702493
196	0x3d94bdfa	0.07262798
197	0xbe4e7996	-0.20163569
198	0x3d258dcc	0.04041843
199	0xbc5d7b27	-0.013518131
200	0xbe3a3a85	-0.18186386
201	0xbe494dfe	-0.19658658
202	0x3e67155e	0.22566745
203	0xbe576ec7	-0.21038352
204	0xbe1713e6	-0.14753684
205	0x3dcda30f	0.100408666
206	0xbc9eecfd	-0.019400114
207	0xbeabce2e	-0.3355574
208	0x3ea8f515	0.32999483
209	0xbd84e548	-0.064890444
210	0xbee3cdd0	-0.4449296
211	0x3e9a8709	0.3018115
212	0x3e444bfb	0.19169609
213	0xbef8ee5f	-0.48619363
214	0x3e9a3665	0.30119625
215	0x3d682fcb	0.056686204
216	0xbe253792	-0.1613448
217	0x3ebd7acc	0.3700775
218	0x3e1e60ba	0.15466586
219	0xbde466aa	-0.11152394
220	0x3d0d9214	0.03456314
221	0x3f051f46	0.52000844
222	0xbf14af74	-0.5808022
223	0xbec6f97d	-0.3886222
224	0xbcb576d3	-0.022151386
225	0xbe3cfff5	-0.18457015
226	0x3e3990c1	0.18121625
227	0xbea330a6	-0.31873053
228	0x3e84bde3	0.25926122
229	0x3eb8dd33	0.36106262
230	0xbdbefcaa	-0.093255356
231	0xbe065609	-0.13118757
232	0x3d595dd3	0.053067993
233	0x3dd876e4	0.105695516
234	0xbe876262	-0.26442248
235	0xbe2458e5	-0.16049536
236	0xbe5dc57d	-0.21657367
237	0x3ece4d3d	0.40293303
238	0xbe79c55f	-0.24391697
239	0xbed34d10	-0.41269732
240	0xbd5e287c	-0.054237828
241	0x3edb89c3	0.4287854
242	0x3f17d573	0.5931007
243	0x3eb8b8f9	0.36078623
244	0x3d820c34	0.06349984
245	0xbe7133d8	-0.23554933
246	0xbc2dd6df	-0.010610311
247	0x3e306fff	0.17230223
248	0xbe57168f	-0.21004699
249	0xbeb65a64	-0.35615838
250	0xbd895d95	-0.067073025
251	0xbe6c6494	-0.23085243
252	0xbef204c8	-0.47269273
253	0xbf0ce2b5	-0.5503343
254	0x3d93e7a7	0.072219186
255	0xbee15f15	-0.44017854

bias f4 [32]
0	0xbe771d28	-0.24132216
1	0xbe3f7e97	-0.18700634
2	0x3e371a74	0.17881185
3	0xbdee5585	-0.11637405
4	0xbe3c565f	-0.18392323
5	0xbe15d241	-0.14630987
6	0xbd87ff82	-0.06640531
7	0xbdfe382e	-0.12413059
8	0xbe84904f	-0.2589135
9	0xbd17f150	-0.037095368
10	0xbe99b49e	-0.30020612
11	0x3eeb1b8f	0.45919463
12	0x3e6e68c6	0.23282155
13	0xbdfcd200	-0.12344742
14	0x3c7bb229	0.015362301
15	0x3d36c732	0.04462356
16	0xbc958014	-0.018249549
17	0xbf3236e5	-0.6961501
18	0xbde68587	-0.11255937
19	0xbe124dd3	-0.142875
20	0x3ce4052e	0.027834501
21	0xbd3c3408	-0.04594806
22	0xbd597a47	-0.05309513
23	0x3d4c43c2	0.049869306
24	0xbd2d83a2	-0.042361863
25	0xbe104ea1	-0.14092495
26	0xbbba6960	-0.005688831
27	0xbd29cf37	-0.04145738
28	0xbe9b34a2	-0.30313593
29	0xbe883fd3	-0.26611194
30	0xbe480f86	-0.19537172
31	0x3d86c344	0.06580213

weight f4 [64, 32, 3, 3]
0	0xbd9ae27d	-0.075627305
1	0x3d996202	0.07489397
2	0x3c163819	0.009168648
3	0xbc092769	-0.0083712125
4	0xbddab1a4	-0.106784135
5	0xbdc286f2	-0.09498395
6	0x3be253c6	0.006906959
7	0x3e06b7ec	0.13156098
8	0x3b9acaac	0.0047238674
9	0xbda5ea22	-0.08101298
10	0x3ac25ad0	0.001482809
11	0x3e2413d6	0.16023192
12	0xbd98e109	-0.07464797
13	0xbd2a1a7e	-0.04152917
14	0xbc092373	-0.008370268
15	0x3c8083dd	0.015687877
16	0x3d57119b	0.052507024
17	0xbc29eb40	-0.010371029
18	0x3ce28e61	0.027655782
19	0xbd967a1b	-0.073475085
20	0xbd7d90e6	-0.061905764
21	0xbc1e3c04	-0.0096578635
22	0xbd15d478	-0.03657958
23	0x3ce8b6b1	0.028407427
24	0xbdc53717	-0.09629648
25	0xbc99e29a	-0.01878481
26	0xbd10ea69	-0.0353798
27	0x3d154a80	0.036448
28	0xbcd313f7	-0.025766356
29	0x3c218a5a	0.009859646
30	0x3d5f2b2c	0.05448453
31	0xbd8a3032	-0.06747474
32	0x3caec7b3	0.021335458
33	0xbca0ee7a	-0.019644964
34	0xbca0e86e	-0.019642081
35	0x3d862ff2	0.065521136
36	0xbd440852	-0.047859497
37	0xbd84c384	-0.06482604
38	0xbc550c4e	-0.013003422
39	0xbd340975	-0.04395433
40	0x3cd25ee5	0.025680015
41	0xbd5c6ad2	-0.05381281
42	0xbc8bb7ff	-0.01705551
43	0xbcf83ad7	-0.030301495
44	0xbc1bdc18	-0.009512924
45	0x3c338fe6	0.010959601
46	0xbdd48c73	-0.10378351
47	0xbde4290b	-0.11140641
48	0x3df3eced	0.119104244
49	0x3e4beb29	0.19913925
50	0x3d92c83b	0.07167097
51	0x3cdcedea	0.026968915
52	0x3cf40cd9	0.029791282
53	0x3d7a23be	0.061069243
54	0xbd5c9e4a	-0.053861894
55	0xbd71395a	-0.058892585
56	0xbd4f906b	-0.050674837
57	0x3d0d9292	0.03456361
58	0xbc504528	-0.012711801
59	0xbca4c523	-0.020113533
60	0x3c8be28e	0.017075803
61	0x3d9373dc	0.07199833
62	0x3d611d38	0.054959506
63	0xbd97c4ce	-0.074105844
64	0xbbefd3ce	-0.0073189503
65	0x3c767733	0.015043068
66	0xbc684951	-0.014177636
67	0x3d81ebd3	0.06343808
68	0x3d12077d	0.035651673
69	0x3d5cd623	0.053915154
70	0x3c803ebd	0.015654916
71	0x3d0340e2	0.0320443
72	0xbd2ae511	-0.04172236
73	0xbd226b58	-0.039653152
74	0xbd1a2306	-0.037631057
75	0xbd7d17e3	-0.06179036
76	0x3c483cd0	0.01222153
77	0xbc0b3c25	-0.008498226
78	0x3d303c14	0.043026045
79	0x3d64f172	0.055894323
80	0xbb96395f	-0.004584476
81	0xbd972b9f	-0.07381367
82	0xbd79be63	-0.060972583
83	0xbd4b9904	-0.049706474
84	0x3d638a29	0.05555168
85	0x3d138b8e	0.03602176
86	0xbda5a50b	-0.0808812
87	0x3c024899	0.007951879
88	0x3c879ab9	0.01655327
89	0x3d71dda4	0.059049264
90	0x3c932ce8	0.017965749
91	0x3d24d446	0.040241502
92	0xbd16e143	-0.03683592
93	0xbc07a70b	-0.008279572
94	0xbd2ae40d	-0.041721392
95	0xbd6e1f96	-0.05813559
96	0xbb55316c	-0.0032530678
97	0xbd111b7c	-0.0354266
98	0x3cb8d101	0.022560598
99	0x3ca1fe2c	0.019774519
100	0xbdcde013	-0.100525044
101	0xbdd7ed33	-0.10543289
102	0xbd90c9be	-0.07069729
103	0x3af033ad	0.0018325947
104	0xbdf4e15b	-0.11957046
105	0xbc7fae8f	-0.015605583
106	0xbdba4799	-0.090956874
107	0xbdd45902	-0.103685394
108	0x3d45d5c8	0.04829958
109	0xbd4e02c7	-0.050295617
110	0xbdda8b92	-0.10671152
111	0xbd4d80a8	-0.050171524
112	0xbd16ccc3	-0.03681637
113	0xbca39d15	-0.019972363
114	0xbcbcf9aa	-0.023068268
115	0xbc07444b	-0.008256028
116	0xbdb13dd7	-0.08654373
117	0xbd5ac034	-0.053405955
118	0xbdd69429	-0.10477478
119	0xbd8c9238	-0.068638265
120	0x3d54dd36	0.051968776
121	0x3d368a78	0.044565648
122	0x3bd6a0b4	0.006549919
123	0xbcb0aeee	-0.021567788
124	0x3b89d085	0.0042057657
125	0x3d14ec9a	0.036358453
126	0x3d2a3276	0.04155203
127	0x3a579733	0.00082241296
128	0x3d087fc0	0.033324957
129	0xbd7a9379	-0.061175797
130	0xbda21665	-0.07914428
131	0xbb96f92d	-0.004607341
132	0x3d684414	0.05670555
133	0xbc11ff6e	-0.008910997
134	0xbd86f3a1	-0.06589437
135	0xbd8b56ad	-0.068036415
136	0xbdacb3bc	-0.08432719
137	0xbc1a55cc	-0.00941987
138	0x3d0e8f4f	0.03480464
139	0xbd0f1181	-0.034928802
140	0xbdb449e3	-0.08803155
141	0xbd001755	-0.03127225
142	0x3ced621b	0.028977444
143	0x3daa4c24	0.08315304
144	0x3c2b411a	0.010452533
145	0x3d82add2	0.0638081
146	0x3d99c448	0.07508141
147	0xbd47945d	-0.048725475
148	0xbdc58faf	-0.09646546
149	0x3cac151e	0.021006163
150	0xbce2a473	-0.027666306
151	0xbd424596	-0.047429644
152	0xbcaac605	-0.020846376
153	0xbd91d005	-0.07119755
154	0xbd658d51	-0.056042973
155	0x3da80ffe	0.08206175
156	0xbc3dd6b1	-0.011586831
157	0xbe0331cd	-0.12811966
158	0xbe0e4936	-0.13895115
159	0xbb2c0bd8	-0.0026252177
160	0xbd50e580	-0.05100012
161	0x3db8e9ba	0.09028955
162	0x3b88302f	0.0041561346
163	0x3d6bb9d5	0.05755027
164	0x3de2306b	0.11044391
165	0xbdd627ab	-0.10456785
166	0x3d836b10	0.06416905
167	0x3d60fffd	0.05493163
168	0xbda58bf1	-0.08083332
169	0x3cc4d552	0.0240275
170	0xbd25784e	-0.040397935
171	0x3d1a4525	0.037663598
172	0x3d5a47fe	0.053291313
173	0xbcc96ad6	-0.024587076
174	0xbd35f1bc	-0.04441999
175	0xbc9ebe28	-0.019377783
176	0xbd57dcf9	-0.05270097
177	0x3d3583fa	0.044315316
178	0x3c32cf06	0.010913616
179	0x3cd88989	0.02643277
180	0xbe24135c	-0.1602301
181	0xbd1cc549	-0.038274083
182	0xbd14593d	-0.036217917
183	0xbda1d31a	-0.079015926
184	0xbd3a926c	-0.045549795
185	0xbcce0baf	-0.025152056
186	0xbd9b0f9b	-0.07571336
187	0xbdffcdec	-0.12490448
188	0xbe01675c	-0.12637085
189	0xbdd93dd5	-0.10607497
190	0x3c066a38	0.008204035
191	0xbd540cc1	-0.051769976
192	0x3ce0da80	0.027447939
193	0x3b8d6ec7	0.004316184
194	0xbd20d0d4	-0.039261654
195	0xbc8d3fcf	-0.01724234
196	0x3c5e4665	0.013566588
197	0xbd7af5fc	-0.061269745
198	0x3d24b063	0.040207278
199	0x3c64ceb0	0.013965294
200	0x3ca90765	0.020633409
201	0x3c3262d5	0.010887821
202	0x3d5de9f7	0.054178204
203	0x3ca1a35c	0.019731216
204	0xbcd9b8d4	-0.02657739
205	0x3d3789d0	0.044809163
206	0xbc6790b0	-0.014133617
207	0xbc1b8bf8	-0.00949382
208	0xbcdb0e3e	-0.02674019
209	0x3c5539da	0.013014281
210	0xbd641072	-0.055679746
211	0xbd15b2c7	-0.03654745
212	0x3bb937e6	0.0056524156
213	0xbda92e6a	-0.08260806
214	0xbba7d8a0	-0.0051222593
215	0xbcb10529	-0.021608906
216	0xbcc5804c	-0.024109028
217	0x3ce2239e	0.027604874
218	0x3d9595c6	0.07303958
219	0xbd3ff8d0	-0.046868145
220	0xbbc08465	-0.0058751577
221	0x3da105ec	0.07862458
222	0x3d54ebff	0.051982876
223	0x3cba0350	0.022706658
224	0xbd534aca	-0.051584996
225	0xbdcb2650	-0.09919417
226	0x3ca99eae	0.020705547
227	0x3d6559f6	0.055993997
228	0x3d2249eb	0.039621275
229	0xbd477408	-0.04869464
230	0xbc9ca961	-0.019123735
231	0x3d6f1f4a	0.05837945
232	0xbcaed4c2	-0.021341685
233	0x3d48a444	0.04898478
234	0xbda4f7dd	-0.08055089
235	0xbdc19e63	-0.09454038
236	0xbcebf5f9	-0.028803812
237	0x3dfb1f19	0.12261791
238	0x3cac2f69	0.0210187
239	0x3ca8c382	0.020601038
240	0x3c9c56a1	0.019084277
241	0x3de836d9	0.11338586
242	0x3d527df2	0.051389642
243	0xbbc58c8f	-0.006028719
244	0x3bdb0168	0.0066835172
245	0xbd043922	-0.03228105
246	0xbc7bcd67	-0.015368796
247	0xbc8f55b3	-0.01749692
248	0x3c8e57d6	0.017375868
249	0x3cad3b90	0.021146566
250	0x3cf2c6ad	0.029635752
251	0xbd678a31	-0.056528274
252	0xbcecb8f8	-0.028896794
253	0xbdc11cf7	-0.09429353
254	0x3d450a51	0.04810554
255	0x3d6d9d51	0.058011357

bias f4 [64]
0	0xbd5f28c9	-0.054482255
1	0xbc039405	-0.008030896
2	0x3cd3bcac	0.025846802
3	0xbd1537c3	-0.03643013
4	0xbd67f3a9	-0.056628857
5	0xbcea3fe8	-0.028594926
6	0xbdefa1c2	-0.11700775
7	0xbe622a62	-0.2208648
8	0xbd8b36e3	-0.06797578
9	0xbe687968	-0.22702563
10	0xbd41e971	-0.047341768
11	0xbd247d45	-0.04015853
12	0xbd0889f5	-0.03333469
13	0xbd9c3eab	-0.076291405
14	0xbdc3041f	-0.095222704
15	0xbd8b8215	-0.068119206
16	0xbdd68bb7	-0.10475867
17	0xbd46cc09	-0.048534427
18	0xbd873b71	-0.066031344
19	0xbd556039	-0.05209372
20	0xbda0d08f	-0.078522794
21	0xbd30f3c2	-0.043201216
22	0x3c754d05	0.014971976
23	0xbd469bae	-0.04848831
24	0xbdb871f1	-0.090061076
25	0xbd429fff	-0.047515865
26	0xbdcfb9ef	-0.10142886
27	0xbd74e13e	-0.05978512
28	0xbe190d20	-0.14946413
29	0xba5dcd40	-0.00084610656
30	0xbcbad7bd	-0.02280795
31	0xbdf63283	-0.12021353
32	0xbdde4062	-0.10852124
33	0xbe88bceb	-0.26706633
34	0xbd445a75	-0.04793783
35	0xbd6b2d1e	-0.057416074
36	0xbdb88009	-0.09008796
37	0xbc8833a7	-0.016626192
38	0xbd02313a	-0.031785227
39	0xbd2880ee	-0.041138582
40	0xbcffe0b1	-0.03123507
41	0xbd8c8c51	-0.06862701
42	0xbe5bbfa5	-0.21459825
43	0xbd30303a	-0.043014742
44	0xbd19b41b	-0.037525278
45	0xbd9262d5	-0.07147757
46	0x3d2a393a	0.04155848
47	0xbbfc633d	-0.00770226
48	0xbc611e18	-0.013740085
49	0xbe187318	-0.14887655
50	0xbd00ee72	-0.0314774
51	0x3cb84246	0.02249254
52	0xbd68c00f	-0.056823786
53	0xbe202b02	-0.15641406
54	0xbde68a71	-0.11256874
55	0xbcdaabf8	-0.02669333
56	0xbd3a579c	-0.045493707
57	0xbe53646a	-0.20643774
58	0xbd2c6f59	-0.042098377
59	0xbd70f4f6	-0.058827363
60	0xbc830b90	-0.015996724
61	0xbe312bca	-0.1730186
62	0xbd84e168	-0.06488305
63	0xbd2d2056	-0.042267166

weight f4 [128, 1600]
0	0xbcc2bd6d	-0.023771966
1	0x3aad8113	0.001323732
2	0x3d7b02a7	0.061281826
3	0x3ce773f4	0.028253533
4	0x3d20283e	0.039100878
5	0x3c1504c9	0.009095379
6	0xbcb0bb2d	-0.021573627
7	0xbcc21dbf	-0.023695825
8	0x3aeef1c5	0.0018230012
9	0x3c9695dc	0.018382005
10	0xbca5da97	-0.020245833
11	0xbc726e93	-0.014796871
12	0x3af81a44	0.0018928726
13	0x3ccbefb2	0.02489457
14	0x3ce65479	0.028116452
15	0x3b881420	0.0041527897
16	0x3d2f21de	0.042756908
17	0x3d05ca92	0.03266389
18	0x3c1a1622	0.009404691
19	0x3cb48ecc	0.022040747
20	0xbbc85373	-0.0061134635
21	0x3b0c0252	0.0021363688
22	0x3c80ce97	0.01572351
23	0xbb898fa1	-0.00419803
24	0x3b6624d1	0.003511716
25	0xbc844ada	-0.016148973
26	0x3b191d3c	0.0023363372
27	0x3b1ceebe	0.0023946012
28	0x3c95aac4	0.018269904
29	0xbcbb5e3a	-0.02287208
30	0xbc996bca	-0.018728156
31	0xbbda0abc	-0.0066541117
32	0x3b9e8dc4	0.004838677
33	0x3cf268a6	0.029590916
34	0x3aca0622	0.0015413205
35	0xbc024a8f	-0.0079523465
36	0xbcc415f2	-0.023936246
37	0x3cda1f0a	0.026626129
38	0x3d2429f5	0.040079076
39	0x3d1087c3	0.035285722
40	0xbcfdedcf	-0.030997185
41	0xbb7fac3c	-0.0039012572
42	0x3c8efe34	0.017455198
43	0xbc0a1603	-0.0084281
44	0x3ba4386f	0.00501161
45	0x3c769438	0.015049987
46	0xbc577771	-0.013151036
47	0x3d4e37af	0.050346073
48	0x3c672700	0.014108419
49	0xbd017594	-0.031606272
50	0xbbb3da53	-0.0054886728
51	0xbafb6cac	-0.0019182167
52	0x3cf48adc	0.02985137
53	0xbc5a911a	-0.013340259
54	0xbba52915	-0.0050402978
55	0xbc982066	-0.018570136
56	0xbc572e47	-0.013133592
57	0x3c455d32	0.012046145
58	0xbb4215b1	-0.002961498
59	0xbbe28b0d	-0.006913549
60	0xbc881f27	-0.016616417
61	0xba7c32da	-0.00096206146
62	0x3bb42f5e	0.0054988107
63	0x3c81b7a3	0.015834635
64	0xbc85a618	-0.016314551
65	0xbc853a56	-0.016263168
66	0x3871b2b1	5.7625297e-05
67	0xbc869625	-0.016429016
68	0x3ca2574c	0.019817017
69	0xbc5199ef	-0.012793048
70	0x3c9fe3a8	0.019517735
71	0xbca79a12	-0.020459209
72	0x3c245588	0.010030158
73	0x3c19d48b	0.009389053
74	0xbc68458d	-0.014176738
75	0xbc7d0170	-0.015442237
76	0xbcdca5f2	-0.026934598
77	0xbcfcf966	-0.030880641
78	0xbd94be0e	-0.072628126
79	0xba16edce	-0.00057574816
80	0x3cc0d0a5	0.02353699
81	0xbc58574b	-0.013204406
82	0x3c1d2f5b	0.00959381
83	0xbd72de04	-0.05929376
84	0xb9643447	-0.00021763249
85	0x3b9c30e1	0.004766569
86	0x3d1c2b39	0.038127158
87	0x3d581a21	0.052759293
88	0x3ca80a44	0.020512708
89	0xbb601021	-0.00341893
90	0x3b39e5cf	0.0028365736
91	0xbd6c3acd	-0.057673264
92	0x3c1f9b3f	0.009741603
93	0x3c9e8523	0.019350594
94	0x3b041108	0.0020151753
95	0x3cae2040	0.021255612
96	0xbd222a47	-0.0395911
97	0xbba3d162	-0.0049993256
98	0xbcd2c324	-0.025727816
99	0x3c4c089e	0.012453226
100	0x3c967b1d	0.018369252
101	0x3cc47b77	0.023984654
102	0x3d71adb9	0.059003565
103	0x3d556bb9	0.052104685
104	0x3c892161	0.01673955
105	0xbcdef62b	-0.027216991
106	0xbc0e5b0a	-0.008688698
107	0x3d4e256f	0.05032867
108	0x3d33b68a	0.043875255
109	0xbc4a94d7	-0.012364588
110	0x3a857a86	0.001018361
111	0xbc8db198	-0.017296597
112	0xbcdee166	-0.027207088
113	0x3bbbac1b	0.0057273037
114	0xb999b1ba	-0.0002931485
115	0xbc8cde22	-0.017195765
116	0xbb960b34	-0.0045789722
117	0xbcb86d5d	-0.022513086
118	0x3c6cd402	0.0144548435
119	0xbba6e997	-0.005093764
120	0x3c36963a	0.011144215
121	0x3dadd720	0.084882975
122	0x3cde0ca4	0.027105637
123	0x3b0cef59	0.0021504967
124	0xbd243e9b	-0.040098768
125	0xbc0af710	-0.008481756
126	0xbbb045ef	-0.0053794305
127	0x3d14148b	0.036152404
128	0x3cb4eb09	0.02208473
129	0xbca3938a	-0.019967813
130	0xbcdc0ad6	-0.026860636
131	0x3c66b518	0.014081262
132	0x3d0d759b	0.034535985
133	0x3a1ec908	0.00060571777
134	0x3a3910d2	0.00070596964
135	0xbcf30524	-0.029665537
136	0x3c80bc57	0.015714807
137	0x3dab5d33	0.08367386
138	0x3d10fb8e	0.03539615
139	0x3d005957	0.0313352
140	0xbd15d6a6	-0.036581658
141	0x3cb7b766	0.022426318
142	0x3c7afc6d	0.015318972
143	0xbba6526c	-0.0050757434
144	0xbbd21bf4	-0.0064120237
145	0xbbd06195	-0.006359289
146	0x3ce5393d	0.027981395
147	0xbd226a71	-0.03965229
148	0x3bc0cb45	0.0058836066
149	0xbcf43ddf	-0.029814659
150	0xbc83b5b9	-0.016077863
151	0xbae5df1b	-0.0017537804
152	0xbce51603	-0.027964598
153	0x3c5e46b0	0.013566658
154	0x3c96c47c	0.018404238
155	0x3ca1c870	0.019748896
156	0x3b00ae2a	0.001963506
157	0x3d0af194	0.033921793
158	0xbb8578c9	-0.0040732366
159	0x3b8ca2b0	0.004291855
160	0xbbc31ac3	-0.005954118
161	0x3d131fe5	0.03591909
162	0x3a103144	0.0005500505
163	0x3c06c391	0.008225338
164	0xbc445879	-0.011983984
165	0xbc6affb1	-0.014343188
166	0xbce894fa	-0.02839135
167	0xbc71f36f	-0.014767512
168	0xbd1c1f3e	-0.038115732
169	0xbbab2dea	-0.0052239792
170	0x3b6bdc56	0.0035989485
171	0xbca9d4d2	-0.020731363
172	0xb7dedf6b	-2.65685e-05
173	0x3be01463	0.006838368
174	0xbc16aeae	-0.00919692
175	0x3a1fa7e8	0.00060903886
176	0x3c939ff6	0.018020611
177	0x3d405f92	0.046966143
178	0x3e0224a7	0.12709294
179	0xbba14ef3	-0.0049227416
180	0x3b98fe60	0.0046689957
181	0x3d744eeb	0.059645575
182	0x3d5a2d7b	0.05326603
183	0x3bd46f2d	0.0064829797
184	0xbac3d6f6	-0.0014941383
185	0x3a4aec4b	0.0007740899
186	0xbd1875c8	-0.0372217
187	0xbc66ce47	-0.014087266
188	0xbd16db40	-0.036830187
189	0x3c22bfe0	0.009933442
190	0xbcc7b487	-0.024378074
191	0x3a9839e5	0.0011613934
192	0xbca4f618	-0.020136878
193	0xbc6e031e	-0.01452711
194	0x3cfbfce1	0.03076023
195	0xbb9b7067	-0.004743624
196	0x3c1fe540	0.009759247
197	0xbda42281	-0.080143936
198	0x3c337d13	0.010955113
199	0xbc60fd8f	-0.013732328
200	0x3c143b15	0.009047289
201	0xbce126a9	-0.027484255
202	0x3cd6229c	0.02613955
203	0x3c07fee6	0.008300519
204	0x3c7bc2ef	0.0153663
205	0x386e8dc5	5.6875655e-05
206	0x3c6b8a31	0.014376209
207	0xbd2c7940	-0.04210782
208	0xbd220b2b	-0.03956143
209	0xbcb212b4	-0.021737434
210	0xbbf3ac2f	-0.0074362974
211	0xbc5dc34e	-0.013535334
212	0x3c94cad2	0.018163119
213	0xbb597520	-0.0033181384
214	0x3cc691a9	0.024239378
215	0x3bc0e431	0.0058865775
216	0x3d1cd8da	0.038292743
217	0x3d6151d6	0.055009685
218	0x3cc24d5b	0.023718527
219	0xbcf9cd05	-0.030493269
220	0x3ca691d1	0.020333203
221	0x3d490350	0.049075425
222	0x3ccb34dc	0.024805479
223	0x3c4847ac	0.012224119
224	0xbc80a564	-0.015703864
225	0xbd04af40	-0.032393694
226	0x3d4de082	0.050262935
227	0x3d4559ff	0.04818153
228	0x3d83067d	0.06397722
229	0x3c9f2954	0.019428886
230	0xbce3613e	-0.02775633
231	0x3cbdbbf1	0.023160907
232	0xbd344b78	-0.044017285
233	0x3d49df2a	0.04928509
234	0x3d41e82f	0.04734057
235	0xbc91b5e9	-0.017786937
236	0xbd974fb8	-0.07388252
237	0xbd127c0f	-0.035762843
238	0x3d101468	0.03517571
239	0xbc558f94	-0.01303472
240	0x3c73c406	0.014878279
241	0xbd10fce4	-0.035397425
242	0x3d2e1811	0.04250342
243	0xbaeda23b	-0.0018130013
244	0xbdc295ea	-0.0950125
245	0x3c03b9df	0.008039921
246	0xbbd2627e	-0.0064204326
247	0xbd3a1a15	-0.04543503
248	0xbd3d923f	-0.04628205
249	0xbd0324b6	-0.032017432
250	0xbc421d51	-0.01184781
251	0xbc5bb0d2	-0.0134088565
252	0xbd2b2839	-0.041786406
253	0xbc41a916	-0.011820098
254	0x3be0d6b3	0.0068615316
255	0x3c01e406	0.0079279

bias f4 [128]
0	0xbd6299eb	-0.05532257
1	0x3d027792	0.031852312
2	0xbcae67b0	-0.021289676
3	0xbc7be079	-0.015373343
4	0xbcaebad6	-0.021329325
5	0xbd51be61	-0.05120695
6	0x3c3d5066	0.011554813
7	0xbd68f727	-0.056876328
8	0x3c8cd2e0	0.017190397
9	0x3d906222	0.07049967
10	0xbc87a7e7	-0.016559554
11	0x3bc6e145	0.0060693347
12	0x3d144ba5	0.036204953
13	0x3c0f94d8	0.008763514
14	0xbd2f41f9	-0.042787526
15	0xbd967bab	-0.073478065
16	0xbd8ac450	-0.06775725
17	0xbb82ccd7	-0.003991704
18	0xbd9a5b8f	-0.07536995
19	0xbcb233c5	-0.021753201
20	0xbcc69255	-0.024239698
21	0x3d211f35	0.039336402
22	0x3c737f9f	0.01486197
23	0xbd694bf5	-0.056957204
24	0xbc282c9a	-0.01026454
25	0x3bd8964a	0.0066097127
26	0x3cf49fdf	0.029861389
27	0x3cb05cbf	0.0215286
28	0xbd89f56d	-0.067362644
29	0x3d509bff	0.05093002
30	0x3caa48c1	0.020786645
31	0x3d83d354	0.06436792
32	0xbbd431bc	-0.0064756554
33	0xbd630c97	-0.05543193
34	0xbd3e83e8	-0.046512514
35	0xbd8cdba7	-0.06877833
36	0x3d67bfe5	0.05657949
37	0x3d0704ae	0.032963447
38	0x3d585e24	0.052824154
39	0x3cbefb0f	0.023313073
40	0x3ce9d911	0.028545888
41	0xbd1a0d13	-0.037610125
42	0x3c2e51ce	0.010639621
43	0x3d9b2c33	0.0757679
44	0x3c48b0f0	0.012249216
45	0xbbdb8642	-0.0066993544
46	0x3bb24f88	0.00544161
47	0x3cd5de0c	0.026106857
48	0x3d5fb573	0.054616403
49	0x3cfa19cc	0.030529879
50	0xbb6f0a7b	-0.0036474753
51	0xbce5c591	-0.028048309
52	0xbd84f579	-0.06492133
53	0x3d1ef4ed	0.0388078
54	0x3d8a7c41	0.06761981
55	0x3c3d05d7	0.011537037
56	0x3a9df135	0.0012050035
57	0xbd3c141b	-0.04591761
58	0x3be4be58	0.0069806986
59	0x3cd176a1	0.025569262
60	0x3db259b3	0.08708515
61	0x3b609427	0.0034267993
62	0x3c859763	0.016307538
63	0xbc242e35	-0.010020782
64	0xbca6bf58	-0.020354912
65	0xbd6944ca	-0.056950368
66	0xbc86fee7	-0.016478969
67	0xbb9ca9e0	-0.004780993
68	0xbd5f8e48	-0.05457905
69	0x3d1540d5	0.03643878
70	0x3d52cfbc	0.051467642
71	0xbd43b99f	-0.047784444
72	0xbda48221	-0.080326326
73	0x3d123668	0.035696417
74	0xbd066433	-0.0328104
75	0xbd7cdbae	-0.06173294
76	0x3d3708a5	0.04468598
77	0xbcb94a3d	-0.022618407
78	0xbd569776	-0.05239054
79	0x3d19be0b	0.037534755
80	0x3d215418	0.03938684
81	0xbd0259d5	-0.03182395
82	0x3cb1dac1	0.021710755
83	0x3cf1ee92	0.029532705
84	0x3d040e02	0.03223992
85	0x3cc23b15	0.023709813
86	0x3ce8a59e	0.028399285
87	0x3d11b57d	0.03557347
88	0xbb5d7e59	-0.0033797233
89	0xbb837d2f	-0.004012726
90	0x3d5eeb9c	0.054423913
91	0x3d133dae	0.035947494
92	0xbd06e47f	-0.032932755
93	0xbd14e2ab	-0.03634898
94	0x3cbb5150	0.022865921
95	0xbb85bd21	-0.004081384
96	0x3cc2ae63	0.023764795
97	0x3d2e9671	0.04262394
98	0x3c3120be	0.010811029
99	0x3cc13c50	0.02358833
100	0xbd612c27	-0.054973748
101	0xbd762697	-0.060095396
102	0xbb1f9e17	-0.0024355703
103	0x3d8b994d	0.06816349
104	0xb95d9d1a	-0.00021134727
105	0x3cc36f3c	0.023856752
106	0x3938f975	0.00017640537
107	0x3d4fe976	0.050759755
108	0xbcef4789	-0.029208915
109	0x3d307e97	0.043089475
110	0x3d024cb7	0.031811442
111	0x3cc2ec1a	0.023794223
112	0x3d14cc9b	0.03632794
113	0xbca45126	-0.020058226
114	0x3c1cdbd9	0.0095739
115	0x3d222abf	0.039591547
116	0xbd98b131	-0.074556716
117	0x3cfb1ca9	0.030653315
118	0xbba904b4	-0.0051580314
119	0xbd23779b	-0.039908987
120	0xbd3f9188	-0.04676965
121	0x3d2c20a6	0.042023323
122	0x3b0c1ef3	0.0021380752
123	0xbd2dce8f	-0.042433318
124	0xbd82268e	-0.0635501
125	0x39fb48cc	0.0004792869
126	0xba865edb	-0.0010251658
127	0x3ce081e4	0.027405687

weight f4 [10, 128]
0	0x3e3d3f18	0.184811
1	0xbe93518c	-0.28773153
2	0xbdcda02a	-0.100403145
3	0xbe4dffa3	-0.20117049
4	0xbe7a4f25	-0.24444254
5	0xbe903085	-0.28162017
6	0xbddcb9a0	-0.10777593
7	0xbee9000c	-0.45507848
8	0xbe2e7833	-0.1703804
9	0x3de60399	0.11231155
10	0xbe7b3718	-0.24532735
11	0xbe0baabc	-0.13639349
12	0xbe2fb3dc	-0.17158455
13	0xbe1c7d02	-0.15282062
14	0x3e454f29	0.19268478
15	0xbe7ae9d3	-0.2450326
16	0xbe00b169	-0.12567677
17	0x3d73f57b	0.05956028
18	0xbe0dbcae	-0.13841507
19	0xbe3d7681	-0.18502237
20	0xbe5eaecf	-0.21746372
21	0x3d9cb5e4	0.076518804
22	0x3e02f7ee	0.1278989
23	0xbd84d2f2	-0.06485547
24	0x3ea0c24c	0.31398237
25	0xbe92f4c4	-0.28702366
26	0xbe5bc4b4	-0.21461755
27	0xbe85e2d0	-0.26149607
28	0xbe4df91b	-0.20114557
29	0xbc19e0a2	-0.009391936
30	0xbbe29107	-0.0069142613
31	0xbda5cb1f	-0.08095383
32	0xbe55d794	-0.20883018
33	0x3e382eeb	0.17986648
34	0xbdc0025c	-0.0937545
35	0xbe55d63d	-0.20882507
36	0x3dc9476a	0.09828074
37	0xbe0dfa66	-0.1386505
38	0xbe204dd5	-0.1565469
39	0xbe42cbb2	-0.19023016
40	0xbe251fc1	-0.16125394
41	0x3e5c2a42	0.21500495
42	0x3c705cc0	0.014670551
43	0xbce97b2d	-0.028501118
44	0x3dcdf242	0.10055973
45	0x3e2a60f9	0.16638555
46	0x3ddf78d1	0.10911716
47	0xbea796a0	-0.32732105
48	0xbe3fca05	-0.18729408
49	0xbd7058b2	-0.058678336
50	0xbd9b7e7d	-0.07592485
51	0xbe1ed649	-0.15511431
52	0xbe6eec01	-0.23332216
53	0x3e8ccf42	0.27501875
54	0x3e9c17a8	0.30486798
55	0xbe2ffd8a	-0.17186561
56	0xbe6fad4c	-0.23405951
57	0xbe28b288	-0.16474354
58	0x3e8cf059	0.2752712
59	0xbeaff629	-0.34367493
60	0x3e353c2a	0.17698732
61	0xbe8bab40	-0.2727909
62	0xbe380ad0	-0.17972875
63	0xbe4a449a	-0.19752732
64	0xbe717335	-0.23579104
65	0xbd2faf6f	-0.042891916
66	0x3b437862	0.0029826392
67	0xbe3d74fe	-0.1850166
68	0xbe57c438	-0.21070945
69	0xbd4f9164	-0.050675765
70	0xbe78eee1	-0.24309875
71	0x3e1216f1	0.14266564
72	0x3df9375f	0.12168764
73	0x3d9bb574	0.07602969
74	0xbe114f3a	-0.14190379
75	0x3ca99949	0.020702975
76	0x3d87904b	0.066193186
77	0xbe0b3198	-0.13593137
78	0x3e3dd3bc	0.18537802
79	0xbe1d9c97	-0.15391766
80	0x3e699fb1	0.22814824
81	0xbe99a747	-0.30010435
82	0xbdbd8a21	-0.092548616
83	0xbe717f31	-0.23583676
84	0x3e9f97c4	0.31170475
85	0xbdb05c25	-0.08611325
86	0x3d2d9a77	0.042383637
87	0x3d8642b0	0.065556884
88	0x3e7fc393	0.2497695
89	0xbe1a1b66	-0.15049514
90	0x3e38d803	0.18051152
91	0x3d880740	0.06642008
92	0xbe9df7d2	-0.30853134
93	0xbe386a19	-0.18009223
94	0x3e8af9ab	0.27143607
95	0x3e382f95	0.17986901
96	0x3e4c6d44	0.19963557
97	0x3e30df50	0.17272687
98	0xbe3fcf49	-0.18731417
99	0xbd318343	-0.04333807
100	0xbe651261	-0.22370292
101	0xbe2608e7	-0.16214333
102	0x3e4e7993	0.20163564
103	0x3e6103b0	0.21974063
104	0x3dbb1bfc	0.09136197
105	0x3e1e12d4	0.1543687
106	0xbdd69097	-0.10476797
107	0xbe2be92b	-0.16788165
108	0xbe47152d	-0.19441672
109	0xbe1d9afc	-0.15391153
110	0xbe9a5b0c	-0.30147588
111	0xbe260d29	-0.16215958
112	0x3d89e7c6	0.067336604
113	0x3dffed39	0.124964185
114	0xbd4dd919	-0.05025587
115	0xbdcae441	-0.09906817
116	0xbe68d869	-0.22738804
117	0x3db89431	0.0901264
118	0x3e13c0d9	0.14429034
119	0xbe6f734a	-0.23383823
120	0xbdc0d6c8	-0.09415966
121	0x3e346ed6	0.17620406
122	0x3e6fb730	0.23409724
123	0x3e23bd26	0.15990123
124	0x3e3caf85	0.1842633
125	0x3daffa32	0.08592643
126	0xbe96f0ed	-0.29480687
127	0x3d8412ca	0.06448896
128	0xbe5e43ea	-0.21705595
129	0x3e128ad7	0.14310776
130	0xbc87a449	-0.01655783
131	0xbe60f424	-0.21968132
132	0x3e6134db	0.21992819
133	0xbdf3ba8e	-0.11900817
134	0x3e0f9c35	0.14024432
135	0xbd9fd664	-0.07804564
136	0x3ea2e5ae	0.31815857
137	0x3e546a8f	0.20743774
138	0xbd899db3	-0.06719532
139	0x3e1153d6	0.14192137
140	0x3e512637	0.20424734
141	0x3e16cf7b	0.14727585
142	0xbe581a07	-0.21103679
143	0xbe0a99e3	-0.13535266
144	0xbe5b4fc6	-0.2141715
145	0x3d50a531	0.05093879
146	0xbe071b5c	-0.1319403
147	0x3e834db2	0.25645214
148	0x3d35e7c5	0.044410486
149	0x3d3e5000	0.046463013
150	0xbcaea5b8	-0.021319255
151	0xbe38c268	-0.1804291
152	0xbd965b15	-0.07341591
153	0x3e525be0	0.2054286
154	0x3e27ffe3	0.16406207
155	0x3e3fd543	0.18733697
156	0xbe03cb26	-0.12870464
157	0x3e32fa6c	0.17478341
158	0xbd54daed	-0.051966596
159	0x3eb3fd1c	0.35154045
160	0x3e4980e2	0.19678071
161	0xbe62f5c3	-0.22164063
162	0xbe774855	-0.24148686
163	0xbe7f31dd	-0.24921365
164	0x3df1416f	0.117800586
165	0x3e29faac	0.1659953
166	0x3e91d9c6	0.2848646
167	0x3e766af8	0.24064243
168	0x3e610ddf	0.21977948
169	0xbe012b68	-0.12614214
170	0x3e00bae7	0.12571298
171	0x3e728bc4	0.23686129
172	0xbcf4a8ca	-0.029865641
173	0xbe8c041d	-0.27346888
174	0xbde5ef2a	-0.112272575
175	0x3e71f0d1	0.2362702
176	0x3eb267c4	0.34844792
177	0x3e652c1e	0.2238011
178	0x3d63f3e1	0.055652503
179	0xbe52209c	-0.20520252
180	0xbe9681cc	-0.29395902
181	0x3dcf6d45	0.101282634
182	0x3e63b9c3	0.22238831
183	0x3def5e2d	0.116878845
184	0x3ea16e31	0.31529382
185	0xbe815a46	-0.25264186
186	0xbe2b194a	-0.16708866
187	0x3e0b7d5e	0.13622043
188	0x3e7ef930	0.24899745
189	0x3e3eb4e6	0.18623695
190	0x3e807a9d	0.25093547
191	0xbb43dde3	-0.0029886893
192	0x3d2faf3c	0.042891726
193	0xbe1d1216	-0.1533893
194	0x3de7bc12	0.113151684
195	0x3e02bd48	0.12767518
196	0x3cf98459	0.030458616
197	0x3e8006ff	0.25005338
198	0x3e5a2b8e	0.21305677
199	0xbe5bfc8c	-0.21483058
200	0xbea8e2c9	-0.32985523
201	0x3e299b71	0.16563202
202	0x3c48532a	0.012226859
203	0xbe9ddfe3	-0.30834875
204	0x3e23fa74	0.16013509
205	0xbe2b48bc	-0.16726965
206	0xbe8e914f	-0.27845237
207	0x3e455e1c	0.19274181
208	0x3ead03a5	0.33791843
209	0x3beb2641	0.007176191
210	0x3dbf77f7	0.09349053
211	0x3e586134	0.2113083
212	0xbdcc62dc	-0.099797934
213	0x3de68b98	0.11257094
214	0x3e472603	0.19448094
215	0xbd8a9df2	-0.06768407
216	0xbe228395	-0.15870507
217	0x3e9c227a	0.30495054
218	0x3e2188f8	0.15774906
219	0x3cfd5bf7	0.030927641
220	0xbe599a47	-0.21250258
221	0xbe20490d	-0.15652867
222	0x3cc097f0	0.02350995
223	0xbeab0048	-0.33398652
224	0xbe62d08a	-0.22149864
225	0x3e6ffc4e	0.2343609
226	0x3ebb7659	0.3661373
227	0x3e7021a9	0.2345034
228	0xbe874a07	-0.26423666
229	0xbcbc647b	-0.022997132
230	0xbe04637f	-0.1292858
231	0x3c269cb4	0.010169197
232	0x3ca48ee7	0.020087672
233	0x3b93785d	0.0045004324
234	0xbd93d08c	-0.072175115
235	0x3e559d51	0.20860793
236	0x3e339732	0.17538145
237	0x3e8661b5	0.2624642
238	0x3e7cc9b3	0.24686317
239	0x3e051a08	0.12998211
240	0x3e953f79	0.29149988
241	0xbdfa7733	-0.12229767
242	0x3dc6787b	0.096909486
243	0x3e336daf	0.1752231
244	0xbe53ca21	-0.20682575
245	0x3da58a7f	0.08083057
246	0x3e017271	0.12641312
247	0xbe5039d7	-0.20334564
248	0xbe3e083a	-0.18557826
249	0x3e307a55	0.17234166
250	0xbe69baca	-0.2282516
251	0xbe085f99	-0.13317718
252	0xbe550068	-0.20800936
253	0x3e007f35	0.12548526
254	0x3e1dd3d0	0.15412831
255	0x3d352d25	0.044232506

bias f4 [10]
0	0xbd39836d	-0.045291353
1	0x3e485a9f	0.19565819
2	0x3d1c5691	0.038168494
3	0xbdbad035	-0.091217436
4	0xbe0b7668	-0.13619387
5	0xbd16a9d3	-0.03678305
6	0xbe4d1fff	-0.20031737
7	0x3c8c4edf	0.017127452
8	0x3e1c535c	0.15266174
9	0x3c7c728a	0.015408168
